result/vqvae.pt (torch, 68930 bytes, 16 tensors)

encoder.net.0.weight f4 [16, 1, 3, 3]
0	0x3df84261	0.12122036
1	0xbee11454	-0.43960822
2	0xbe6c48b2	-0.23074606
3	0x3e8888ed	0.26666966
4	0xbda58abf	-0.08083104
5	0x3e05e085	0.13073929
6	0x3e03c319	0.12867393
7	0x3e9ddd1b	0.30832753
8	0x3d8f71ab	0.07004102
9	0xbe8c3f0a	-0.27391845
10	0x3d98a83c	0.07453963
11	0x3ef4585e	0.4772367
12	0xbe8472eb	-0.25868925
13	0xbee468ab	-0.44611105
14	0x3e9c58e2	0.30536562
15	0xbcb5c26f	-0.02218744
16	0xbe602d77	-0.21892343
17	0x3d51cc84	0.051220432
18	0x3e9bfad9	0.3046482
19	0x3db98aed	0.09059701
20	0xbdc57455	-0.09641329
21	0xbe3cbcc5	-0.18431385
22	0xbe0e300a	-0.13885513
23	0xbd86181b	-0.065475665
24	0xbe044812	-0.12918118
25	0x3cf0e1fe	0.029404636
26	0x3ea15259	0.3150814
27	0x3e42ec20	0.19035387
28	0xbe077122	-0.1322675
29	0x3e6027ab	0.21890132
30	0x3e1a7ae1	0.15085937
31	0x3ecab3ba	0.39590245
32	0x3e8baf8c	0.2728237
33	0xbe8a4bfc	-0.27011096
34	0xbf03e841	-0.51526266
35	0xbe5c1ca9	-0.21495308
36	0x3e7bc001	0.24584962
37	0x3e53562e	0.20638344
38	0xbcf8d412	-0.03037456
39	0x3cccfd4e	0.025023129
40	0x3ef0837e	0.4697532
41	0xbea11f14	-0.31469023
42	0x3e7b6373	0.24549656
43	0xbe36f3b0	-0.17866397
44	0xbe8f7b96	-0.28023976
45	0x3d8e7102	0.06955148
46	0xbe3d5b9e	-0.1849198
47	0x3d8433e2	0.06455208
48	0xbdb4b7c7	-0.08824115
49	0x3a7fa7a3	0.0009752458
50	0xbe8456c5	-0.2584745
51	0xbd9d6160	-0.076845884
52	0x3e9c1731	0.30486444
53	0x3dad50da	0.08462687
54	0x3ea996e7	0.33122942
55	0x3e973134	0.29529727
56	0x3c004866	0.007829761
57	0xbe5b646b	-0.21425025
58	0x3e8bbb7e	0.27291483
59	0x3e2a9df7	0.16661821
60	0xbe323873	-0.17404346
61	0x3e5c1782	0.21493343
62	0x3e73cb07	0.23807918
63	0x3eb99d3c	0.36252773
64	0xbcb62f85	-0.022239456
65	0xbe96c8c3	-0.29450044
66	0x3da88ee9	0.08230383
67	0x3e2e27af	0.17007326
68	0xbe94c512	-0.29056603
69	0xbeb45fbe	-0.35229295
70	0x3d8e1a9d	0.0693867
71	0xbe1f15b6	-0.15535626
72	0x3da9dca6	0.082940385
73	0x3dc5b251	0.09653152
74	0xbd444472	-0.047916837
75	0x3e4d58d0	0.2005341
76	0x3ea9a39b	0.33132634
77	0x3e90f41f	0.2831125
78	0xbe5e4db1	-0.21709324
79	0x3ce22242	0.027604226
80	0xbe920960	-0.28522778
81	0xbe4bd4ad	-0.19905348
82	0xbe7b7608	-0.24556744
83	0xbea121ff	-0.3147125
84	0x3eb34c1f	0.35019013
85	0x3e01b75f	0.12667607
86	0xbe59fc61	-0.21287681
87	0x3e54285f	0.20718525
88	0x3dff2665	0.12458495
89	0x3e195988	0.1497556
90	0x3e6c80f9	0.23096074
91	0xbe07ca89	-0.13260855
92	0xbd89e073	-0.067322634
93	0x3eb1b1ff	0.34706113
94	0xbea15045	-0.31506553
95	0xbe414232	-0.18872908
96	0x3e66dae2	0.22544435
97	0xbc58cea4	-0.013232861
98	0xba97ff60	-0.0011596493
99	0xbe5a7199	-0.21332397
100	0x3ee3ccdf	0.44492242
101	0xbdb5ff43	-0.08886578
102	0xbde2ceb6	-0.11074583
103	0x3edda42c	0.43289316
104	0xbe65820b	-0.22412889
105	0xbe9d5d14	-0.30735075
106	0x3ed6c172	0.41944462
107	0xbd6ea4c7	-0.058262613
108	0x3e5fd7e0	0.21859694
109	0x3d8746d0	0.06605303
110	0x3d42c157	0.047547664
111	0x3e93239c	0.28738105
112	0x3ee0ea2e	0.43928665
113	0xbe2ba698	-0.16762769
114	0x3d730b21	0.059336785
115	0x3e6a210a	0.22864166
116	0x3e5a69c7	0.21329413
117	0x3da92184	0.08258346
118	0xbe41f6f9	-0.18941869
119	0xbdf5810f	-0.119875066
120	0xbe6a628e	-0.22889158
121	0x3e49c209	0.19702925
122	0x3ed65bb2	0.41866833
123	0xbe2dd0c5	-0.1697417
124	0x3e8b901b	0.2725838
125	0xbe051ca5	-0.12999208
126	0xbe905c96	-0.28195637
127	0xbdcebb4d	-0.100943185
128	0x3e6a1f00	0.22863388
129	0x3eb346b2	0.35014874
130	0xbdb3f275	-0.087864794
131	0x3e3090ad	0.1724269
132	0x3ea41b98	0.32052302
133	0x3e60cf36	0.21954045
134	0x3e45984b	0.19296376
135	0x3e8d0700	0.27544403
136	0x3eafb0db	0.34314618
137	0x3e874bec	0.2642511
138	0xbd844f7b	-0.06460472
139	0xbee0cc48	-0.43905854
140	0xbea2e75a	-0.31817132
141	0x3d94e1f5	0.072696604
142	0xbe481863	-0.19540553
143	0x3ca1ec91	0.019766124

encoder.net.0.bias f4 [16]
0	0x3dffac91	0.12484086
1	0xbcaa5090	-0.020790368
2	0x3e483473	0.19551258
3	0x3dae5b93	0.0851356
4	0x3e12009f	0.1425805
5	0x3e8715e3	0.26383886
6	0xbe01f5bf	-0.12691401
7	0x3eb247eb	0.34820494
8	0x3e234d7d	0.15947528
9	0xbd82a6ab	-0.06379446
10	0xbcbe8cc5	-0.023260484
11	0x3dcd38c5	0.100205936
12	0xbe29110e	-0.16510412
13	0x3d4a432c	0.049380466
14	0x3e896bc5	0.26840034
15	0x3c21c107	0.009872681

encoder.net.2.weight f4 [16, 16, 3, 3]
0	0xbcfd4313	-0.030915773
1	0xbc404a45	-0.011736457
2	0x3d2cc586	0.04218056
3	0x3d86b1e5	0.065768994
4	0x3d829267	0.0637558
5	0x3d22e0ee	0.03976529
6	0x3c61cea0	0.013782173
7	0xbddf366f	-0.10899054
8	0x3d9ad81c	0.07560751
9	0xbd8e6ab3	-0.06953945
10	0xbc8cea19	-0.01720147
11	0xbcb1356d	-0.02163192
12	0xbe4343a1	-0.19068767
13	0x3ea35471	0.3190036
14	0x3f059838	0.5218539
15	0x3e05d51b	0.13069575
16	0x3d86657d	0.06562326
17	0x3b92c3d6	0.004478912
18	0x3b075e05	0.0020655405
19	0x3ebe80d9	0.37207678
20	0x3df27c47	0.1184011
21	0x3dd0aab5	0.1018881
22	0xbeaa9cd8	-0.33322787
23	0xbdae624e	-0.08514844
24	0xbc23d950	-0.010000542
25	0x3d34f700	0.04418087
26	0x3bf3b61e	0.0074374815
27	0x3c67bcae	0.014144106
28	0xbe567f2c	-0.2094695
29	0xbe5bd4c2	-0.2146788
30	0xbdb2a573	-0.08722963
31	0x3ea55149	0.32288578
32	0x3e661434	0.22468644
33	0x3c898f17	0.016791863
34	0xbdb2482f	-0.08705174
35	0xbe18a948	-0.14908326
36	0xbdbf4d08	-0.093408644
37	0x3d362c14	0.04447563
38	0xbca7e49a	-0.020494748
39	0x3db78682	0.08961202
40	0x3d4ab6ae	0.049490623
41	0x3de33018	0.110931575
42	0x3cdbf241	0.026848914
43	0x3c8740cf	0.016510395
44	0xbe7e674e	-0.24844095
45	0x3c3e9990	0.011633292
46	0x3da90dce	0.08254586
47	0x3e87acbd	0.26498976
48	0x3b513c70	0.0031926893
49	0xbe00655c	-0.12538666
50	0xbe350ad0	-0.17679906
51	0xbe172508	-0.1476022
52	0xbd71e166	-0.059052847
53	0x3e4e53ac	0.20149106
54	0xbd0ec1f5	-0.03485294
55	0x3db185b0	0.08668077
56	0x3d2f7719	0.04283819
57	0xbdab4a3e	-0.0836377
58	0x3def5c23	0.116874956
59	0x3dcabdcc	0.09899482
60	0xbde5edc7	-0.11226993
61	0x3ca4d1aa	0.020119507
62	0xbe2fa5a1	-0.17153026
63	0x3e2b39c6	0.16721258
64	0x3e8c72b3	0.2743126
65	0xbedeb400	-0.43496704
66	0xbd78e46e	-0.060764723
67	0x3e02123a	0.12702265
68	0x3d31f5c5	0.043447275
69	0x3cb27a57	0.021786852
70	0xbea2654b	-0.31717905
71	0x3d2faa33	0.042886924
72	0xbd5ff757	-0.05467924
73	0xbe484786	-0.19558534
74	0xbde8883f	-0.11354112
75	0x3cd5fff2	0.02612302
76	0x3dcf0fa7	0.10110407
77	0x3dc369f0	0.0954169
78	0x3e1c65b0	0.15273166
79	0xbde95f67	-0.1139515
80	0xbe7b95cf	-0.24568866
81	0xbe605834	-0.21908647
82	0x3e5877dd	0.21139474
83	0xbe72e015	-0.23718293
84	0x3d9f4cc9	0.077783175
85	0x3e79e957	0.24405418
86	0x3e8091fc	0.25111377
87	0x3e061230	0.13092875
88	0xbdb59003	-0.08865359
89	0xbe0d120a	-0.13776413
90	0x3e813b13	0.25240383
91	0x3e42f093	0.19037084
92	0xbe38394a	-0.17990604
93	0x3ded2181	0.11578656
94	0x3e9260b4	0.28589404
95	0x3e4f69e6	0.20255241
96	0x3d166b62	0.036723502
97	0x3e20b3f4	0.15693647
98	0xbdd1e585	-0.102488555
99	0xbd131987	-0.035913017
100	0x3dad06b2	0.08448543
101	0xbd1a8400	-0.03772354
102	0x3c559ffe	0.013038633
103	0x3e1d1a16	0.15341982
104	0x3df2a423	0.11847713
105	0xbdf3d303	-0.11905482
106	0x3e72c05d	0.23706193
107	0xbc08ae92	-0.008342402
108	0x3d0f1bd9	0.034938667
109	0x3d7d999b	0.061914068
110	0xbc8b9093	-0.017036712
111	0xb9aaa17e	-0.00032545248
112	0x3dee3cfd	0.11632726
113	0x3df957d7	0.12174957
114	0xbd95bd0b	-0.07311448
115	0xbdc1de7a	-0.09466262
116	0xbde9fa16	-0.11424653
117	0x3dc2f755	0.09519831
118	0xbdd543d5	-0.104133286
119	0xbd7c44e4	-0.061589137
120	0x3e9e5ef4	0.30931818
121	0x3eca8937	0.39557812
122	0x3e188598	0.14894712
123	0x3e373c55	0.17894109
124	0x3e4c0d8b	0.19927041
125	0x3ee1d47f	0.44107434
126	0xbc35487c	-0.011064645
127	0x3d8b704f	0.068085305
128	0x3d981743	0.07426312
129	0xbc5cc486	-0.013474589
130	0x3dee7873	0.116440676
131	0xbdaa3836	-0.08311503
132	0x3d637b9c	0.055537805
133	0x3d4d8330	0.05017394
134	0xbd01377b	-0.03154705
135	0xbdd2a72a	-0.1028579
136	0x3ec4ede5	0.3846275
137	0xbe17d41d	-0.14827009
138	0x3e79325f	0.24335621
139	0xbded552e	-0.11588512
140	0xbb161e7c	-0.0022906354
141	0x3e24d050	0.1609509
142	0xbdc4dc4f	-0.09612333
143	0xbe2988a6	-0.16556033
144	0x3e346223	0.17615561
145	0xbe0115dd	-0.12605996
146	0xbe5e09a7	-0.2168337
147	0x3e209a67	0.156839
148	0xbcabd9f8	-0.020977959
149	0x3e20eebf	0.15716074
150	0xbd3693c7	-0.044574525
151	0x3b8cdd0d	0.0042988122
152	0x3cee1657	0.029063387
153	0x3d9b1d61	0.07573963
154	0xbe0bea9e	-0.13663718
155	0x3e1338a5	0.14377077
156	0x3e3c4cd3	0.18388681
157	0xbdd14b3c	-0.10219428
158	0x3d89c32e	0.06726681
159	0x3e77604d	0.2415783
160	0xbda00aff	-0.07814597
161	0xbd3694a8	-0.044575363
162	0x3e457361	0.19282295
163	0x3d9bdba3	0.07610252
164	0x3dc27df9	0.094966836
165	0x3be93abd	0.007117598
166	0xbd17bf50	-0.037047684
167	0x3dacc7d9	0.084365554
168	0xbd796753	-0.060889553
169	0xbdf60bf2	-0.12013997
170	0x3e9efd39	0.3105257
171	0x3d0af6a7	0.033926632
172	0x3c3f9f9d	0.01169577
173	0x3c942e70	0.01808855
174	0x3e2fda3b	0.17173092
175	0xbde07d03	-0.10961344
176	0x3cadfb9f	0.021238146
177	0x3d231157	0.03981146
178	0x3e8f3938	0.27973342
179	0x3e9ead13	0.3099142
180	0x3b835ecf	0.004009105
181	0xbd20d701	-0.039267544
182	0xbdf7febc	-0.121091336
183	0x3e17d906	0.14828882
184	0xbe389f24	-0.18029457
185	0xbeba89e3	-0.36433324
186	0xbd4dd3ad	-0.050250698
187	0xbe82b6ae	-0.2553
188	0xbdf91cfd	-0.12163732
189	0xbddd240a	-0.107978895
190	0xbd97052c	-0.07374033
191	0x3e00eb69	0.12589802
192	0x3db6695c	0.089068145
193	0xbd839e0f	-0.06426632
194	0x3e1343c7	0.14381324
195	0xbd7ff735	-0.062491614
196	0x3d35093a	0.044198252
197	0x3e492be3	0.19645648
198	0x3be47d58	0.00697295
199	0xbe02e8e0	-0.12784147
200	0xbdcd0d30	-0.10012281
201	0x3d3c94cf	0.046040352
202	0xbd917eeb	-0.07104286
203	0xbd853db6	-0.06505911
204	0x3dbebe55	0.09313647
205	0xbd7afb03	-0.06127454
206	0xbd67e201	-0.05661202
207	0x3d4cc186	0.049989246
208	0x3c8dc172	0.017304156
209	0x3e00d7db	0.12582342
210	0x3b9819c0	0.0046417415
211	0x3ab350ef	0.0013680736
212	0x3e2ee9ba	0.17081347
213	0xbc3cd385	-0.01152504
214	0xbe224cd3	-0.15849619
215	0x3df68ce5	0.12038592
216	0x3cabc8ba	0.020969737
217	0x3d75a00a	0.05996708
218	0x3d72ed83	0.05930854
219	0x3dd77985	0.10521225
220	0xbe732762	-0.23745492
221	0xbe0e1643	-0.1387568
222	0x3e1bfde3	0.15233569
223	0xbe04bcd7	-0.12962662
224	0x3d8a3724	0.067487985
225	0xbbdecda5	-0.006799417
226	0xbeda3425	-0.42617908
227	0x3e24d720	0.16097689
228	0x3e5e9713	0.21737318
229	0x3d038fdf	0.032119628
230	0xb96cb2c0	-0.00022573303
231	0x3d2b9970	0.041894376
232	0x3d9f5da6	0.07781534
233	0x3d06fd12	0.03295619
234	0xb99346fc	-0.00028090912
235	0x3d9a7862	0.075424924
236	0xbef521b2	-0.4787727
237	0x3e1762e9	0.14783825
238	0x3eb67fdd	0.35644427
239	0xbdb34b17	-0.087545566
240	0xbdad2594	-0.08454433
241	0xbc2987a9	-0.010347285
242	0xbe63f40e	-0.22261068
243	0x3daf02e6	0.08545475
244	0x3cbe9b70	0.023267478
245	0xbd927937	-0.07152026
246	0x3e7f123e	0.24909303
247	0xbe835568	-0.25651097
248	0xbe8bdc87	-0.27316687
249	0xbba6614d	-0.005077517
250	0xbdb7a007	-0.0896607
251	0xbddc2e11	-0.10750974
252	0xbcb540ca	-0.02212562
253	0xbda1b9af	-0.078967445
254	0xbd27db23	-0.04098047
255	0x3d2a243c	0.041538462

encoder.net.2.bias f4 [16]
0	0x3e1b5546	0.15169248
1	0x3bbcfab1	0.0057671894
2	0xbcb96784	-0.022632368
3	0x3c524ff6	0.012836447
4	0xbb9a94f3	-0.004717463
5	0x3d5b076e	0.053473882
6	0xbcedadd8	-0.02901356
7	0xbd01ca42	-0.03168703
8	0x3a71aa4a	0.00092187955
9	0xbd4d480a	-0.05011753
10	0xbcc03a02	-0.02346516
11	0xbdc8081c	-0.09767172
12	0xb9fa99ff	-0.00047798452
13	0x3c075b9a	0.008261586
14	0x3c56a23b	0.013100202
15	0xbc978a60	-0.0184986

encoder.net.4.weight f4 [16, 16, 3, 3]
0	0xbd2d443a	-0.042301394
1	0x3d6b2ae7	0.05741396
2	0xbd45b779	-0.048270676
3	0x3d29d3fa	0.041461922
4	0xbda5938d	-0.08084784
5	0x3b8f458c	0.0043723043
6	0xbcc84d6c	-0.02445098
7	0xbd993444	-0.07480672
8	0xbc8da465	-0.017290303
9	0x3d75cb3d	0.060008276
10	0xbcfd1c6c	-0.030897342
11	0x3d931e84	0.07183555
12	0xbc9b590a	-0.018963356
13	0xbcb0b9e4	-0.021573015
14	0x3d535f5f	0.051604625
15	0x3d4d3c48	0.050106317
16	0x3da6fa4c	0.08153209
17	0x3d7fa93c	0.062417254
18	0xbdaa0c39	-0.083031125
19	0xbd04a927	-0.03238788
20	0xbb8f1526	-0.0043665348
21	0xbd53ebd2	-0.051738568
22	0x3cb033a8	0.021509007
23	0xbd167e72	-0.03674168
24	0xbdaa699f	-0.08320927
25	0xbd7bb9e8	-0.06145659
26	0xbd9028fe	-0.07039069
27	0x3c5b44d2	0.013383107
28	0xbd9463d0	-0.072456
29	0xbd103c03	-0.03521348
30	0xbc795275	-0.015217413
31	0x3c83b524	0.016077586
32	0xbd814b4a	-0.063131884
33	0x3cce9df7	0.025221808
34	0xbd99ce8a	-0.07510097
35	0xbd83d808	-0.06437689
36	0x3d0008a0	0.031258225
37	0xbd0ef4d0	-0.03490144
38	0x3d867549	0.06565339
39	0x3d0d7f46	0.034545206
40	0xbcc8df2d	-0.024520481
41	0xbc7cfeba	-0.015441591
42	0xbce703fe	-0.028200146
43	0xb9375289	-0.00017482987
44	0x3c10bbba	0.00883382
45	0xbc167a1c	-0.009184387
46	0xbd54f38a	-0.05199007
47	0xbd907d41	-0.0705514
48	0xbd629d3d	-0.055325735
49	0x3b9e3ba3	0.0048288866
50	0xbc378039	-0.011200004
51	0xbd2e177f	-0.042502876
52	0xbca62d48	-0.020285264
53	0xbc9e5235	-0.019326309
54	0x3d1c8608	0.03821376
55	0xbdae6ef7	-0.085172586
56	0xbd54f979	-0.05199573
57	0xbd2719ef	-0.040796217
58	0xbd21f06f	-0.039535936
59	0xbd6d3872	-0.05791516
60	0x3c1d943f	0.009617864
61	0xbd21e5a3	-0.03952564
62	0xbc55169f	-0.013005882
63	0xbd6b06b6	-0.057379447
64	0x3d7e5460	0.062092185
65	0xbd76c859	-0.06024966
66	0xbd1e0214	-0.0385762
67	0x3d13379e	0.035941713
68	0x3cbce279	0.02305721
69	0xbd9bee9c	-0.076138705
70	0x3d36cea6	0.04463067
71	0xbd3d54d3	-0.046223473
72	0xbc936155	-0.017990747
73	0x3cd36772	0.025806163
74	0x3ba88f84	0.0051440615
75	0x3d304c5d	0.043041576
76	0xbd0fae4b	-0.035078328
77	0xbd374578	-0.044743985
78	0xbbe25c71	-0.0069079925
79	0x3d0ab03e	0.033859484
80	0x3d94c7fa	0.07264705
81	0xbd659a14	-0.056055143
82	0xbcb74822	-0.022373263
83	0xbd7847cb	-0.060615342
84	0xbd8ff525	-0.070291795
85	0xbdaaca7f	-0.08339404
86	0xbda30f8d	-0.079619505
87	0xbd83a00c	-0.06427011
88	0xbbc032ea	-0.0058654444
89	0xbd16d96c	-0.036828443
90	0x3d2fa020	0.042877316
91	0x3d7d7182	0.061875828
92	0xbd9a8b28	-0.07546073
93	0x392fc1ea	0.00016761539
94	0x3cb4e1e9	0.022080379
95	0xbdbbfcd5	-0.09179083
96	0xbd124a0c	-0.035715148
97	0x3d02d689	0.031942878
98	0xbd8c2c45	-0.06844381
99	0x3d6164b9	0.055027697
100	0xbb8c47c0	-0.004281014
101	0x3b251286	0.0025188043
102	0x3d55947c	0.05214356
103	0xbda66dae	-0.081263885
104	0x3d3510b1	0.04420537
105	0xbda4dee6	-0.08050327
106	0x3c8ea711	0.017413648
107	0xbcacc3aa	-0.021089394
108	0x3d164f2b	0.036696594
109	0xbcc6c428	-0.024263456
110	0xbdc4952c	-0.09598765
111	0xbcda4b34	-0.026647188
112	0x3c986bb6	0.018606048
113	0xbd2db209	-0.042406116
114	0xbdd0807f	-0.10180759
115	0xbd23aafd	-0.03995799
116	0xbc45f8f9	-0.0120832855
117	0x3b9ccd41	0.0047852104
118	0x3c60866a	0.013703922
119	0xbc9102a2	-0.01770145
120	0xbcf6f013	-0.030143773
121	0xbd06acf6	-0.032879792
122	0x3c036436	0.008019498
123	0xbbc8cf57	-0.0061282325
124	0x3ca14fea	0.019691426
125	0xbcc35e73	-0.023848748
126	0xbcb0618a	-0.021530885
127	0x3d35d876	0.044395886
128	0xbb02abc3	-0.0019938804
129	0xbdc46865	-0.09590224
130	0xbbdcea08	-0.006741766
131	0x3d48e5f4	0.049047425
132	0xbd2b3b57	-0.041804638
133	0x3cc76c97	0.024343772
134	0xbda01afe	-0.07817648
135	0xbce732ed	-0.028222525
136	0x3d1c54a5	0.03816666
137	0xbd4cad1f	-0.04996979
138	0xbd3cdadc	-0.046107158
139	0xbcc9996e	-0.024609294
140	0xbcba5c37	-0.02274905
141	0xbd48c395	-0.049014647
142	0x3cdfede0	0.027335107
143	0xbd1158c8	-0.03548506
144	0xbdb5af4f	-0.08871328
145	0x3d11f38b	0.03563265
146	0xbc3fccdf	-0.01170656
147	0x3cd90403	0.02649117
148	0x3da1a195	0.078921475
149	0xbd5512aa	-0.052019753
150	0x3d0d55ed	0.034505773
151	0xbced629a	-0.028977681
152	0xbd11cb00	-0.035593987
153	0xbdd482a2	-0.10376479
154	0xbea8917e	-0.32923502
155	0x3d9ae6eb	0.07563575
156	0xbd60dfdb	-0.054900985
157	0xbe8e3632	-0.27775723
158	0x3e166d81	0.1469021
159	0xbded0df7	-0.11574929
160	0xbe0c3b98	-0.13694608
161	0xbd3594a0	-0.044331193
162	0xbda07819	-0.07835407
163	0xbde9ede0	-0.11422324
164	0x3e3486c2	0.17629531
165	0xbe1d179a	-0.15341035
166	0xbe240f80	-0.16021538
167	0xbe00b3be	-0.12568566
168	0xbccba4f8	-0.024858937
169	0xbdf4e627	-0.119579606
170	0xbdc86f34	-0.09786835
171	0xbe01c9cd	-0.12674637
172	0xbde311ff	-0.11087417
173	0xbddf4bbc	-0.10903117
174	0xbd499ad6	-0.04921993
175	0xbe5ab936	-0.21359715
176	0xbe1f0388	-0.15528691
177	0xbd801a34	-0.06254998
178	0x3d35bcf8	0.044369668
179	0x3d06d142	0.032914408
180	0x3d6a1367	0.05714741
181	0x3dcf2a05	0.101154365
182	0x3dcc818d	0.09985647
183	0xbd8662ac	-0.06561789
184	0x3b1fe970	0.0024400614
185	0x3b9527f7	0.0045518833
186	0xbca278f3	-0.019833064
187	0xbc610f05	-0.013736491
188	0x3d02c693	0.031927656
189	0xbc8235b7	-0.015894754
190	0x3e1d34b7	0.1535214
191	0x3e021cdc	0.12706321
192	0x3c1acbdb	0.009448017
193	0xbd06dfe9	-0.03292838
194	0xbc5d782a	-0.013517419
195	0xbca9f8e6	-0.020748567
196	0x3dd4e41d	0.10395072
197	0xbd21894d	-0.03943758
198	0xbeddb9cf	-0.43305823
199	0x3e0b154a	0.1358234
200	0x3d992944	0.07478574
201	0xbd885fe1	-0.066589125
202	0x3e2e020a	0.16992965
203	0xbcc13e10	-0.023589164
204	0x3d4a269b	0.049353223
205	0xbd20bab5	-0.039240558
206	0x3c0867f7	0.008325568
207	0x3d927ca1	0.07152677
208	0x3c665b7b	0.014059897
209	0xbcbaa871	-0.022785397
210	0xbd1beeb9	-0.03806946
211	0xbe48b3a0	-0.19599771
212	0xbd903eff	-0.070432656
213	0x3c16b945	0.009199445
214	0x3da5a837	0.08088725
215	0x3d2dc17f	0.04242086
216	0x3cb9fb35	0.022702793
217	0xbe2d57df	-0.16928051
218	0xbe091811	-0.13388087
219	0xbd0bcf15	-0.034133036
220	0x3dc36429	0.095405884
221	0xbc77f9e8	-0.015135266
222	0x3dc72858	0.09724492
223	0xbd64fce2	-0.05590523
224	0x3cc868e8	0.024464086
225	0x3d932b6c	0.071860164
226	0x3cccad50	0.024984986
227	0x3d33c2da	0.043886997
228	0x3dababa7	0.083823495
229	0x3dfa05d1	0.12208141
230	0x3ddb8afb	0.10719868
231	0xbd1c9b6e	-0.038234167
232	0x3d1abd98	0.037778467
233	0xbd6ca754	-0.057776764
234	0x3dbbc455	0.09168307
235	0xbdfe03be	-0.124030575
236	0xbe0b97d8	-0.13632143
237	0x3d70749d	0.05870496
238	0xbe2518c6	-0.16122732
239	0xbe1cc2ac	-0.15308636
240	0xbc619504	-0.013768438
241	0xbcd3f9c4	-0.025875933
242	0x3d115bc4	0.035487905
243	0x3de3166c	0.11088261
244	0x3c95c125	0.018280575
245	0x3d83ce31	0.06435812
246	0x3d737625	0.059438843
247	0x3d52fd47	0.051511075
248	0xbb7d5d2f	-0.0038660278
249	0xbd2487f1	-0.040168706
250	0x3d49e829	0.04929367
251	0x3d4f33ac	0.050586388
252	0x3ce32673	0.027728295
253	0xbd167ef4	-0.036742166
254	0xbe72383c	-0.23654264
255	0xbde289c0	-0.1106143

encoder.net.4.bias f4 [16]
0	0x3ac93b53	0.0015352763
1	0xbde7382c	-0.11290011
2	0x3da7c3cc	0.08191642
3	0xbd8e3419	-0.069435306
4	0x3d32238a	0.043490924
5	0xbccbb216	-0.024865191
6	0xbdb3910f	-0.08767902
7	0x3c992525	0.01869447
8	0x3cbb6b49	0.022878306
9	0xbd9a1bd9	-0.07524843
10	0x3da05c85	0.07830147
11	0x3d3f5f18	0.046721548
12	0xbcf06446	-0.02934469
13	0xbcfba3aa	-0.03071769
14	0xbcbdc319	-0.023164319
15	0x3c31c0a0	0.010849148

encoder.net.6.weight f4 [16, 16, 3, 3]
0	0x3d6651d4	0.05623038
1	0x3ccdf37e	0.02514052
2	0x3cdaf45c	0.026727848
3	0xbd76b965	-0.0602354
4	0xbd8d76b7	-0.06907409
5	0x3ae96ebb	0.001780949
6	0xbcbad465	-0.022806356
7	0x3d04f75f	0.032462474
8	0x3d35a81a	0.044349767
9	0xbb5a5e88	-0.0033320505
10	0xbd262601	-0.040563587
11	0x3bd71ed3	0.006564954
12	0xbdf7d66f	-0.12101447
13	0x3e69c5bf	0.2282934
14	0xbcd89bb2	-0.026441429
15	0xbba31f96	-0.0049781306
16	0x3cf23c02	0.02956963
17	0x3cfd4004	0.030914314
18	0x3b4d6b17	0.0031344348
19	0xbdc46f5e	-0.09591554
20	0x3d3e176a	0.04640905
21	0xbdcf0d81	-0.101099975
22	0x3e00357c	0.12520403
23	0x3dc42dd5	0.09579054
24	0xbc2a0d10	-0.010379091
25	0x3cc72210	0.024308234
26	0xbc4f9f0d	-0.012672198
27	0x3cde9c4d	0.02717414
28	0xbcb8d781	-0.022563698
29	0x3bdcb8b9	0.006735888
30	0x3cd3cafc	0.025853626
31	0x3ce0e101	0.02745104
32	0x3d1df0e3	0.038559806
33	0x3ce4f072	0.027946685
34	0xbd0fd424	-0.035114422
35	0xbcd7a50e	-0.026323821
36	0x3dddc4e3	0.10828569
37	0x3da86a6d	0.08223424
38	0xbcadf00b	-0.021232625
39	0xbc2667f2	-0.010156618
40	0xbdbc77c6	-0.092025325
41	0xbdd318d6	-0.103074715
42	0x3a0ee928	0.0005451613
43	0x3c10e0be	0.008842645
44	0x3c6a8897	0.014314792
45	0xbc5e5ed0	-0.01357241
46	0x3c8c57d3	0.017131722
47	0xbc98ea74	-0.018666483
48	0x3d446efa	0.047957398
49	0xbd42ca59	-0.047556255
50	0x3cf5c39a	0.030000497
51	0xbcd95e80	-0.026534319
52	0xbdc46520	-0.095896006
53	0x3a227cf6	0.000619843
54	0xbca28e68	-0.019843295
55	0xbd3460bb	-0.044037562
56	0xbbd4370e	-0.0064762896
57	0xbe76cef3	-0.24102382
58	0xbe16502d	-0.14679022
59	0xbc97a90c	-0.018513225
60	0x3c4ced9c	0.012507822
61	0x3c507f53	0.012725669
62	0xbcb117a8	-0.021617725
63	0x3d8cc398	0.06873244
64	0xbd445ab1	-0.047938053
65	0xbd77d5a9	-0.060506497
66	0xbdac0093	-0.08398547
67	0xbd0d3b74	-0.034480527
68	0x3d4ff1d8	0.05076775
69	0xbb9f234f	-0.004856504
70	0xbbfa66b9	-0.00764164
71	0xbc71528e	-0.014729155
72	0xbdc2d19b	-0.09512635
73	0xbd0d074a	-0.03443078
74	0xbd9c0f09	-0.07620055
75	0x3d494608	0.049139053
76	0xbd77aab5	-0.060465533
77	0xbcb53ebc	-0.02212464
78	0x3d120166	0.035645865
79	0xbd3afde2	-0.045652278
80	0x3d19879c	0.037482843
81	0xbd610218	-0.054933637
82	0xbca7121e	-0.020394381
83	0xbc6a16d1	-0.014287666
84	0xbd936f70	-0.071989894
85	0x3cbd58fd	0.023113722
86	0xbcb2852b	-0.021792015
87	0xbdca66f2	-0.098829165
88	0x3c3bfdba	0.011474067
89	0xbd504918	-0.050850958
90	0x3d1bd89a	0.038048364
91	0xbda3109c	-0.07962152
92	0xbd6a1dc4	-0.057157293
93	0xbe0a4265	-0.1350189
94	0xbe5065d3	-0.20351343
95	0xbd9ebc8b	-0.077508055
96	0xbdf77b9b	-0.12084123
97	0xbe27a180	-0.16370201
98	0xbcaa29b8	-0.020771846
99	0x3c5ad7c4	0.013357107
100	0x3d390095	0.04516657
101	0xbba5b9ad	-0.0050575347
102	0x3e25fa2d	0.16208716
103	0x3e2ee88c	0.17080897
104	0xbcfd30b4	-0.030907013
105	0x3cf8a166	0.030350398
106	0x3d30174d	0.04299097
107	0xbc36e623	-0.011163267
108	0xbd1cf3f6	-0.038318597
109	0x3d24fc39	0.0402796
110	0xbab9a25c	-0.0014162767
111	0xbb948d54	-0.004533449
112	0x3ca192bc	0.019723289
113	0xbc6f2a18	-0.014597438
114	0x3bce9c9b	0.00630529
115	0xbd14b206	-0.03630259
116	0xbd0b6b4e	-0.03403788
117	0xbd249b53	-0.04018719
118	0x3cad53bd	0.021158094
119	0x3dad1825	0.08451871
120	0xbd71b5c2	-0.05901123
121	0x3c428f4a	0.011874983
122	0x3c9a4ba9	0.018834906
123	0x3d060fae	0.032729797
124	0x3dc63030	0.0967716
125	0x3ce7e85f	0.028309045
126	0xbbd7c2b9	-0.006584492
127	0xbb9725ab	-0.0046126447
128	0x3b310a9a	0.0027014376
129	0x3da8a0d1	0.08233798
130	0xbe512baf	-0.2042682
131	0xbba1caf0	-0.004937522
132	0x3ce090ad	0.027412737
133	0x3d879b53	0.066214226
134	0x3cddba88	0.027066484
135	0x3c51a839	0.012796455
136	0xbdb93754	-0.09043756
137	0xbdab1421	-0.08353449
138	0xbd2a52b6	-0.041582786
139	0xbdb5cd0b	-0.088769995
140	0xbc9651dd	-0.018349582
141	0x3ccf2633	0.02528677
142	0x3d55eb82	0.05222655
143	0xbcdabae0	-0.026700437
144	0xbd6abe1b	-0.057310205
145	0x3d6ca785	0.057776947
146	0xbd2d8174	-0.042359784
147	0x3d6e3ae0	0.058161616
148	0xbc693d97	-0.014235876
149	0xbcad661c	-0.021166854
150	0x3d6d2c0a	0.057903327
151	0x3d142875	0.036171395
152	0xbc001c14	-0.007819194
153	0x3cb0f2a0	0.021600068
154	0xbc3bc970	-0.011461601
155	0x3c156486	0.009118205
156	0x3d6cc137	0.05780145
157	0x3e181193	0.14850454
158	0x3bb99df4	0.0056645814
159	0xbc7046b2	-0.014665293
160	0x3c273700	0.010205984
161	0xbcc6f6f9	-0.024287688
162	0x3e0926f6	0.13393769
163	0xbc4937b6	-0.012281349
164	0x3c38e68c	0.011285435
165	0xbd668da1	-0.05628741
166	0xbcb37e6f	-0.021910874
167	0xbe0b3f17	-0.13598286
168	0x3bede324	0.0072597433
169	0xbcc28b26	-0.023747992
170	0x3b729615	0.0037015725
171	0x398d0429	0.00026896715
172	0xbd6ae034	-0.057342723
173	0x3ca89016	0.020576518
174	0xbd5c84fc	-0.05383776
175	0x3d802b60	0.06258273
176	0xbc2b5740	-0.010457814
177	0xbd6a7a57	-0.05724558
178	0xbd3ed835	-0.04659291
179	0xbd9831c4	-0.07431367
180	0x3e1eea80	0.15519142
181	0x3c84cba2	0.016210381
182	0xbc2dec4b	-0.010615419
183	0x3d646e4b	0.055769246
184	0xbd1e2115	-0.03860577
185	0x3dc40ec6	0.0957313
186	0xbcf73d59	-0.03018062
187	0xbc202e1b	-0.009776617
188	0x3bd38556	0.006455104
189	0x3d1ed2d6	0.038775288
190	0xbc34d092	-0.011036055
191	0xbc29f9a7	-0.010374463
192	0x3dab0523	0.08350589
193	0x3d9aacb3	0.07552471
194	0x3be16eef	0.0068796794
195	0x3c0b63d9	0.008507692
196	0x3d1121b0	0.035432518
197	0xbcd5b928	-0.026089266
198	0x3c558761	0.013032765
199	0xbcda796b	-0.026669225
200	0x3cb54aca	0.022130389
201	0x3d488207	0.04895213
202	0x3e1315ab	0.14363734
203	0xbc8f310e	-0.017479446
204	0x3c88a7a2	0.016681496
205	0xbb4611b5	-0.0030222957
206	0x3c9d3140	0.019188523
207	0x3cea6196	0.028610986
208	0x3d85ac91	0.06527055
209	0x3d79ca32	0.060983844
210	0x3dd8ed12	0.105920926
211	0xbd37bbc6	-0.04485681
212	0xbd797f88	-0.06091264
213	0x3bf6ebd7	0.0075354385
214	0xbb5f6732	-0.0034088609
215	0x3d54a9e8	0.051919848
216	0x3d71a928	0.05899921
217	0x3d3af541	0.04564405
218	0x3cba9f3e	0.02278101
219	0x3c158248	0.0091253
220	0x3d99ad39	0.07503743
221	0x3c23367d	0.0099617215
222	0xbba92b0e	-0.005162603
223	0xbcd67a53	-0.026181376
224	0x3db787a7	0.089614205
225	0xbd5ae0e8	-0.053437144
226	0xbcaf6f1f	-0.021415291
227	0x3d919f47	0.07110458
228	0xbd910192	-0.07080378
229	0x3d0ab3ca	0.033862866
230	0xbb566735	-0.0032715325
231	0x3ced51fd	0.02896976
232	0x3d71a4e7	0.058995154
233	0x3d777cbb	0.060421687
234	0x3bd130c8	0.006383989
235	0x3e5a7960	0.21335363
236	0x3d8ccc10	0.06874859
237	0x3e275cc6	0.16343984
238	0x3e89e350	0.26931238
239	0x3d69b6fd	0.057059277
240	0xbc51b31c	-0.012799051
241	0x3ca3600b	0.019943258
242	0xbc158f17	-0.009128354
243	0xbe19f0e9	-0.15033306
244	0xbda420ab	-0.080140434
245	0xbc7906b6	-0.015199354
246	0xbdb93095	-0.090424694
247	0xbc89f87b	-0.016842118
248	0xbdaa128f	-0.08304321
249	0x3bdcefa8	0.0067424364
250	0x3cdf0237	0.027222736
251	0x3c333dd3	0.010940033
252	0xbd151238	-0.036394328
253	0x3dd16d49	0.102259226
254	0xbb3bf44b	-0.0028679546
255	0x3d392732	0.045203395

encoder.net.6.bias f4 [16]
0	0x3d2a2cd9	0.041546676
1	0xbdc1a77e	-0.09455775
2	0xbc8b2bf9	-0.016988741
3	0xbd057c60	-0.032589316
4	0x3d21fbac	0.039546654
5	0xbe8d8ca9	-0.27646378
6	0x3b6d7e07	0.0036238448
7	0xbe8c60e6	-0.27417678
8	0xbdbd3203	-0.092380546
9	0x3deeb8c6	0.116563365
10	0x3da08195	0.07837216
11	0x3e411451	0.18855406
12	0x3cfe9038	0.031074628
13	0xbe4d6ecf	-0.20061801
14	0xbe3a9251	-0.18219878
15	0xbc6eb71c	-0.014570024

decoder.net.0.weight f4 [16, 16, 3, 3]
0	0xbd12e9f0	-0.03586763
1	0x3d77740b	0.0604134
2	0x3e1805d8	0.14845979
3	0xbde13725	-0.10996846
4	0x3cdc4f26	0.02689321
5	0xbdb70032	-0.08935584
6	0xbd06aeb0	-0.03288144
7	0x3de382bd	0.11108921
8	0xbe23d1bc	-0.15997976
9	0x3e0e0e0c	0.13872546
10	0xbdb03071	-0.086029895
11	0x3d58be82	0.052916057
12	0xbe31a8ac	-0.173495
13	0x3d3e760b	0.046499293
14	0xbe081771	-0.13290192
15	0xbd0a32eb	-0.033739965
16	0xbe00d33b	-0.12580578
17	0xbd1eaa95	-0.0387369
18	0xb9cad571	-0.0003868747
19	0x3e10aa54	0.14127475
20	0xbdff19f9	-0.12456126
21	0x3e938ddb	0.28819165
22	0x3ec1e242	0.37867934
23	0x3deb21b3	0.11481037
24	0x3e714026	0.23559627
25	0xbe3edd60	-0.18639135
26	0x3d8240e7	0.063600354
27	0xbdfd5030	-0.1236881
28	0x3dd06c36	0.101768896
29	0x3de8b0b2	0.11361827
30	0x3e3f27e0	0.18667555
31	0x3ec359d4	0.3815447
32	0x3d850593	0.06495204
33	0xbe538ba2	-0.20658734
34	0x3e6307f3	0.22171001
35	0x3e29165c	0.16512436
36	0xbe07547c	-0.13215822
37	0xbe2dc500	-0.16969681
38	0x3d7beb54	0.061503723
39	0xbc00cd01	-0.007861377
40	0x3d5b745d	0.05357777
41	0xbdd23b3d	-0.10265205
42	0x3a82cedb	0.0009979861
43	0x3d9e3a95	0.077260174
44	0x3e28f3b5	0.16499217
45	0xbb664a9e	-0.003513969
46	0xbe92813b	-0.2861422
47	0x3e157821	0.14596607
48	0x3e8f5279	0.2799261
49	0x3e8b6bd7	0.27230713
50	0x3af31c52	0.0018547869
51	0xbde1273f	-0.10993814
52	0x3d9ba10e	0.07599078
53	0xbe214011	-0.15747096
54	0xbdd001e5	-0.10156611
55	0x3dac7e4b	0.08422526
56	0x3a9538ab	0.0011384686
57	0xbc7418fb	-0.014898534
58	0x3c13a575	0.009011616
59	0x3e42bf03	0.19018178
60	0x3e6e5a19	0.23276557
61	0xbdc7b87a	-0.09751983
62	0xbdd7d861	-0.10539318
63	0x3d5dd692	0.05415971
64	0xbde4dc5b	-0.11174842
65	0xbe17e05f	-0.14831685
66	0xbecd3d9f	-0.40086076
67	0xbd74816b	-0.059693735
68	0xbd8301f8	-0.0639686
69	0xbcc5fff3	-0.024169898
70	0x3b689d5b	0.0035494182
71	0xbd865bee	-0.06560503
72	0xbe0602fd	-0.13087077
73	0xbe162262	-0.14661554
74	0x3c9bf8d0	0.019039541
75	0x3dcb4845	0.09925894
76	0xbe400b9b	-0.18754427
77	0x3e489d78	0.1959132
78	0xbcd0bc16	-0.025480311
79	0x3df44c89	0.119286604
80	0x3e808142	0.25098616
81	0x3d00e4a5	0.031468052
82	0x3d35e184	0.04440452
83	0x3e00c3f0	0.12574744
84	0xbe249a3c	-0.1607446
85	0xbe778785	-0.2417279
86	0x3d6fb41d	0.05852138
87	0xbdcd2ed0	-0.100186944
88	0xbe2496a7	-0.16073094
89	0xbdcab5ac	-0.098979324
90	0x3d9d7d9f	0.07689976
91	0xbde8fd98	-0.11376494
92	0x3cd5ece3	0.026113933
93	0x3e153b69	0.14573444
94	0x3e90cc97	0.2828109
95	0x3cf485c3	0.029848939
96	0x3e193158	0.1496023
97	0xbd908589	-0.0705672
98	0x3d7eb9ea	0.06218902
99	0x3d16eddc	0.036847934
100	0xbcce1cd8	-0.025160238
101	0x3c0f61f9	0.008751386
102	0x3ddbcbd2	0.10732235
103	0xbe7c6578	-0.24648082
104	0x3e67b883	0.2262898
105	0xbdb0d81b	-0.08634969
106	0xbac02265	-0.0014658688
107	0x3c6725e9	0.01410816
108	0x3cc0493c	0.02347242
109	0x3e1e4c4d	0.15458794
110	0xbe101f31	-0.14074399
111	0x3d59a2f6	0.053133927
112	0xbe30430d	-0.17213078
113	0xbdae53c1	-0.085120685
114	0xbd230227	-0.039796975
115	0x3c6fdfac	0.01464073
116	0x3d17e2f3	0.03708167
117	0x3d0725c6	0.032995008
118	0x3d1c852b	0.038212936
119	0xbcedfe41	-0.029051902
120	0xbd4cbab1	-0.04998273
121	0xbe43c106	-0.19116601
122	0x3c332222	0.010933431
123	0xbe247f65	-0.16064222
124	0xbe729be5	-0.23692282
125	0xbe21c935	-0.1579941
126	0x3d162ec0	0.036665678
127	0xbc657948	-0.0140059665
128	0xbd62cd17	-0.05537137
129	0xbde22b4c	-0.110434145
130	0x3eb0540f	0.34439132
131	0xbcc5e4c9	-0.024156945
132	0xbd0e9606	-0.034811042
133	0x3d756345	0.059909124
134	0xbd4d5969	-0.050134096
135	0x3b1c25ce	0.0023826244
136	0xbdfd0bcf	-0.12355768
137	0x3c7c95cc	0.015416574
138	0xbe25046b	-0.16114967
139	0xbd50d3a8	-0.0509831
140	0xbc340407	-0.010987288
141	0xbe00699b	-0.12540285
142	0xbe2373a9	-0.1596209
143	0xbdd20a30	-0.10255849
144	0x3d022eb7	0.031782832
145	0x3e3e330f	0.18574165
146	0x3e49263d	0.19643493
147	0x3dda31bc	0.10654017
148	0xbd2b2450	-0.041782677
149	0x3be8bc49	0.0071025235
150	0xbb6526c6	-0.0034965738
151	0xbd4bf401	-0.049793247
152	0xbd08a01a	-0.03335581
153	0x3e837344	0.25673878
154	0xbd3031c8	-0.043016225
155	0x3d293d50	0.041318238
156	0xbd2a0182	-0.041505344
157	0xbe29cc85	-0.16581924
158	0x3e25f763	0.16207652
159	0xbe079f53	-0.13244371
160	0xbe16aeeb	-0.14715163
161	0xbcc8a1f1	-0.024491282
162	0xbe4fe527	-0.20302258
163	0xbe38a49c	-0.18031543
164	0x3df8ba98	0.12144965
165	0xbe701ac5	-0.23447712
166	0xbe779f6c	-0.24181908
167	0xbe05c345	-0.1306277
168	0xbe3a8c4a	-0.18217579
169	0x3dfa568a	0.12223537
170	0x3ccd48b3	0.02505908
171	0xbe587ef8	-0.21142185
172	0xbe92e788	-0.2869227
173	0xbe3adc76	-0.18248162
174	0xbdc5651e	-0.09638427
175	0xbc8dc6b4	-0.017306663
176	0xbe2d1e9b	-0.16906206
177	0x3e928456	0.2861659
178	0x3e4aa72a	0.1979033
179	0xbde5adac	-0.11214766
180	0x3d30bb6f	0.0431475
181	0xbdaef268	-0.08542329
182	0xbcc6efd1	-0.024284275
183	0x3da4357e	0.08018015
184	0x3ddb4a6c	0.10707554
185	0xbd28903d	-0.04115318
186	0x3e6a2676	0.22866234
187	0xbe6c4825	-0.23074396
188	0xbe93590a	-0.2877887
189	0xbdc81747	-0.09770065
190	0xbdcbd563	-0.0995281
191	0xbe031afa	-0.1280326
192	0x3dc8d7ab	0.098067604
193	0x3e2019bd	0.15634818
194	0xbe15cec6	-0.14629659
195	0x3e3aefc9	0.18255533
196	0x3d5c83e6	0.053836726
197	0x3dc67aac	0.096913666
198	0x3e2f2cfa	0.17107001
199	0x3da74688	0.0816775
200	0x3be6f69a	0.00704844
201	0x3da54c9e	0.08071254
202	0x3e17a71d	0.14809842
203	0xbc774d79	-0.0150941545
204	0xbe53ef1a	-0.20696679
205	0x3d0a6efc	0.03379725
206	0x3cb65fbd	0.022262448
207	0x3e2a9962	0.16660073
208	0xbe65a1a7	-0.22424947
209	0xbe56da5d	-0.20981736
210	0x3d70ee15	0.058820803
211	0x3e814a26	0.25251883
212	0x3e032b40	0.12809467
213	0xbdf6b6a3	-0.12046554
214	0x3d8cb318	0.06870097
215	0xbd8fac15	-0.07015244
216	0x3d9375df	0.072002165
217	0xbe033f02	-0.12817004
218	0xbe03e747	-0.12881194
219	0xbe15391b	-0.14572565
220	0x3e02ebcd	0.12785263
221	0xbe4d550f	-0.20051979
222	0xbe03e7f5	-0.12881453
223	0xbe5c9168	-0.21539843
224	0xbe23969c	-0.15975422
225	0x3dd7f83a	0.10545392
226	0x3cc43666	0.02395172
227	0xbd21d3f0	-0.03950876
228	0x3e1fa2ce	0.15589449
229	0xbdaffc85	-0.08593086
230	0x3d93991a	0.07206936
231	0x3ca46f32	0.020072553
232	0xbe200ea8	-0.15630591
233	0xbd254009	-0.04034427
234	0xbe857446	-0.26065272
235	0xbdef3144	-0.116793185
236	0xbd060a92	-0.032724924
237	0x3d95df73	0.0731801
238	0xbed7cb78	-0.42147422
239	0xbd725577	-0.059163537
240	0xbddf43f5	-0.10901634
241	0xbdb1fc5e	-0.08690713
242	0x3cf21285	0.029549846
243	0xbd961218	-0.0732767
244	0xbe3745aa	-0.17897668
245	0xbe24cc59	-0.16093577
246	0xbd517c00	-0.051143646
247	0xbe52d5f7	-0.20589434
248	0xbd6dbd3a	-0.05804179
249	0xbd2cf0af	-0.04222172
250	0xbdc6a852	-0.09700073
251	0xbd6e7a47	-0.05822208
252	0xbe9959c1	-0.2995129
253	0x3ce01db9	0.027357923
254	0x3e3a81ad	0.1821353
255	0xbe1a9fb1	-0.1509998

decoder.net.0.bias f4 [16]
0	0x3e19edda	0.1503214
1	0xbca99c3f	-0.020704387
2	0x3dc75de2	0.097347036
3	0x3d4a44b4	0.049381927
4	0x3dc6d050	0.09707701
5	0x3e20055b	0.15627043
6	0x3da68063	0.081299566
7	0x3c33c627	0.010972536
8	0x3cd13fe9	0.02554317
9	0xbc01ac57	-0.007914624
10	0x3d991d94	0.07476345
11	0x3def92ab	0.116978966
12	0x3df3c76f	0.11903273
13	0x3e072ef3	0.13201503
14	0xbd223a91	-0.039606635
15	0x3e00caab	0.12577312

decoder.net.2.weight f4 [16, 16, 3, 3]
0	0xbb33ea94	-0.0027453052
1	0x3df60341	0.120123394
2	0x3d74d400	0.05977249
3	0xbd9018f6	-0.07036011
4	0x3dd3c0b2	0.10339488
5	0xbe90688e	-0.2820477
6	0x3d9a6b57	0.07540005
7	0x3d8b7c10	0.068107724
8	0x3d5c00dd	0.05371176
9	0x3d3e0c0b	0.046398204
10	0x3c761664	0.015019987
11	0x3a57d893	0.0008233871
12	0xbd95d223	-0.07315471
13	0x3d2e82e0	0.04260528
14	0x3ca6206f	0.020279137
15	0xbc76adda	-0.015056098
16	0xbb9f4276	-0.0048602177
17	0xbcef2182	-0.029190782
18	0xbdc58eb8	-0.09646362
19	0xbd7a9e8c	-0.06118636
20	0x3c3167cd	0.010827971
21	0x3e98e0d0	0.29859018
22	0xbdc3aa83	-0.09554007
23	0x3df48c28	0.11940795
24	0x3d1e7893	0.038689207
25	0x3b4793c2	0.003045306
26	0xbd61e518	-0.05515012
27	0x3e1ff0ce	0.15619203
28	0x3de09c9a	0.109673694
29	0x3d94e2b8	0.07269806
30	0x3dfdcac8	0.12392193
31	0x3e031022	0.12799123
32	0x3d8d7e4d	0.069088556
33	0x3cc941c4	0.024567492
34	0x3de9b8db	0.114122115
35	0x3d8a2012	0.06744398
36	0x3e3f1f3b	0.18664257
37	0xbe8134af	-0.25235507
38	0xbe3b683e	-0.18301484
39	0x3ca21164	0.019783683
40	0xbe38975b	-0.18026488
41	0xbe0e51d2	-0.138984
42	0x3df60043	0.12011769
43	0xbe0afdb3	-0.13573341
44	0x3d0b783f	0.034050222
45	0xbdec030d	-0.115240194
46	0x3e6245c2	0.22096923
47	0xbe2f32a1	-0.17109157
48	0x3dd568f9	0.104204126
49	0x3e96398e	0.29340786
50	0x3deb4492	0.11487688
51	0xbd92b796	-0.071639225
52	0x3e12581c	0.14291424
53	0x3e19b11e	0.15008971
54	0xbdcc8d32	-0.09987868
55	0xbded81e9	-0.11597044
56	0xbc8cc199	-0.017182158
57	0xbdd46d8d	-0.10372458
58	0xbd8ec0bf	-0.06970357
59	0x3be210be	0.0068989685
60	0x3d4ced1a	0.050030805
61	0xbd73c97a	-0.059518315
62	0xbd8d98e6	-0.06913929
63	0xbd8702c8	-0.06592327
64	0x3b7a0e89	0.0038155636
65	0x3d5ff560	0.054677367
66	0x3cfcace2	0.030844156
67	0xbdec704e	-0.11544858
68	0x3d9fc6b6	0.07801573
69	0x3d6f7f98	0.058471292
70	0xbd0e91c5	-0.034806985
71	0x3d28b0de	0.0411843
72	0x3e897057	0.2684352
73	0xbe4ac972	-0.19803408
74	0x3dd27347	0.10275894
75	0xbc0af4ff	-0.008481263
76	0x3dbd9a31	0.09257925
77	0x3d193431	0.03740329
78	0x3d78ad8a	0.060712375
79	0xbd0d501e	-0.034500234
80	0xbd06ccba	-0.032910086
81	0x3d627903	0.055291187
82	0x3dc2d5e1	0.095134504
83	0x3daf3970	0.08555877
84	0xbda6a43e	-0.081367955
85	0xbb1b7d6f	-0.0023725887
86	0x3dccc602	0.099987045
87	0x3d4c20f5	0.049836118
88	0xbe09dcec	-0.13463181
89	0x3db368c5	0.087602176
90	0x3d1b1326	0.03786006
91	0x3e2a259e	0.16615912
92	0x3a0017a2	0.0004886334
93	0x3d9cda1c	0.076587886
94	0x3d99cdcc	0.07509956
95	0x3dbc5cf6	0.091974184
96	0x3cbd0f7c	0.023078673
97	0x3cd04921	0.025425496
98	0xbb595772	-0.0033163694
99	0x3e0cf776	0.13766274
100	0x3e2ba336	0.16761479
101	0x3d803a0f	0.06261074
102	0x3db1ae1d	0.086757876
103	0x3d7673a1	0.060168866
104	0x3dc3f816	0.09568803
105	0x3da80e11	0.08205808
106	0x3dd3fbb0	0.1035074
107	0x3d54d901	0.051964764
108	0xbd9acdda	-0.07558794
109	0xba05c0e0	-0.0005102288
110	0x3d6397d3	0.055564713
111	0x3d780fde	0.060562007
112	0xbda38786	-0.079848334
113	0x3e173589	0.14766516
114	0x3deaa4b4	0.11457196
115	0xbe19c04e	-0.15014765
116	0xbd1a078b	-0.03760485
117	0xbe081415	-0.1328891
118	0xbe0cded9	-0.13756885
119	0x3c2c5550	0.010518387
120	0xbdf96a26	-0.12178449
121	0xbe022b61	-0.1271186
122	0x3c9343cf	0.01797667
123	0x3b0c39b7	0.0021396705
124	0xbcc7fe46	-0.02441324
125	0x3da22c50	0.07918608
126	0x3e18b3e5	0.14912374
127	0x3e37f6b1	0.17965199
128	0x3dcaae0c	0.09896478
129	0x3c23562a	0.009969274
130	0x3ddabf17	0.10680979
131	0x3dadf7eb	0.08494552
132	0x3daadd25	0.08342961
133	0x3db95202	0.09048845
134	0xbaec488f	-0.0018026995
135	0xbd0e3e8c	-0.034727618
136	0xbdd0fca0	-0.102044344
137	0x3d9f1105	0.07766918
138	0x3dda641d	0.10663626
139	0x3d1029f0	0.035196245
140	0xbc743452	-0.014905052
141	0xbdbfd1c7	-0.09366184
142	0xbd5d33ff	-0.054004665
143	0xbd8f4413	-0.06995406
144	0xbbedafd1	-0.007253625
145	0x3d6c50bb	0.057694178
146	0x3d6e473f	0.058173414
147	0xbd9a35d5	-0.07529799
148	0x3e2d6659	0.16933574
149	0x3deb6f2e	0.11495815
150	0x3d243535	0.040089805
151	0x3db2ab60	0.087240934
152	0x3c991988	0.018688932
153	0xbd535e12	-0.051603384
154	0xbe154459	-0.14576854
155	0x3b6fbec9	0.0036582223
156	0x3e1dbfdc	0.1540522
157	0xbdb35d10	-0.08757985
158	0xbe2be2a6	-0.16785678
159	0xbd2599cd	-0.04042988
160	0xbd5feb78	-0.05466792
161	0xbe102697	-0.14077221
162	0x3b4d3853	0.003131409
163	0xbcefee13	-0.029288327
164	0xbd1c9b75	-0.038234193
165	0x3d9c8a0f	0.0764352
166	0xbeb179e4	-0.34663308
167	0xbd9ee3db	-0.07758304
168	0xbcb71dce	-0.02235308
169	0xbd473737	-0.04863664
170	0x3d0803ae	0.033206634
171	0x3e209b3a	0.15684214
172	0x3e06df5c	0.13171142
173	0x3e31cbb0	0.17362857
174	0x3e435a15	0.19077332
175	0x3e19b8fc	0.15011972
176	0x3e448599	0.19191588
177	0x3e0b587b	0.13607971
178	0x3dcc265d	0.09968255
179	0x3c7b52b5	0.015339543
180	0x3e47b3ae	0.19502136
181	0x3c5f72db	0.0136382235
182	0xbe5995aa	-0.21248499
183	0x3e7f8d4d	0.24956246
184	0x3dbfbb53	0.09361901
185	0xbd895b16	-0.067068264
186	0x3e33585a	0.17514172
187	0x3dc297de	0.095016226
188	0xbc68ce43	-0.014209333
189	0xbede0110	-0.43360186
190	0x3e44e3f7	0.19227587
191	0xbe250368	-0.1611458
192	0x3ec3b4fb	0.38224015
193	0x3e0d6429	0.1380774
194	0x3e8f03ff	0.27932736
195	0xbe107adf	-0.14109372
196	0x3d805d69	0.062678166
197	0x3e3178e1	0.17331268
198	0xbdff09e8	-0.12453061
199	0xbe594c1c	-0.2122044
200	0xbef1c870	-0.47223234
201	0xbe33ee0e	-0.1757128
202	0xbe4cc25d	-0.19996019
203	0xbe84e790	-0.25957918
204	0x3ce98cb3	0.028509473
205	0xbdbaa2f2	-0.091131106
206	0xbddc8742	-0.10767986
207	0xbdb83c1f	-0.08995842
208	0xbe27baa9	-0.16379799
209	0xbe11b8f5	-0.14230712
210	0x3e044ca5	0.12919863
211	0xbdeb43c5	-0.114875354
212	0xbdee9da1	-0.11651159
213	0xbc0c97d5	-0.008581121
214	0xbce7895e	-0.028263744
215	0xbd43417b	-0.04766987
216	0x3b8deb6e	0.004331044
217	0xbdca83a2	-0.09888388
218	0x3e63b91a	0.2223858
219	0x3cdeba65	0.02718849
220	0xbd37db5c	-0.04488693
221	0xbecc8aac	-0.39949548
222	0x3cdcba18	0.026944205
223	0x3e02a744	0.1275912
224	0x3d8aef88	0.06783968
225	0x3d0a961d	0.033834565
226	0x3d676cba	0.056500174
227	0x3ccc364e	0.024928238
228	0xbe3c1370	-0.1836679
229	0xbda092f2	-0.078405276
230	0xbe16872b	-0.147
231	0x3d8bec86	0.06832223
232	0xbd381d23	-0.044949662
233	0x3de47d7b	0.11156746
234	0xbd9574f4	-0.07297698
235	0x3dd5de34	0.104427725
236	0x3d09ee7b	0.0336747
237	0x3ccb19cd	0.024792576
238	0x3da39367	0.07987099
239	0xbb95faf7	-0.0045770365
240	0xb9e7a1fb	-0.00044180438
241	0x3d1283f0	0.035770357
242	0x3db0ad60	0.08626819
243	0x3e00edd6	0.12590727
244	0x3d4de447	0.05026653
245	0x3da911cf	0.0825535
246	0x3d9322e2	0.07184388
247	0x3d359133	0.044327926
248	0xbc80a3f7	-0.015703185
249	0x3dd22daf	0.1026262
250	0x3d5f249f	0.054478284
251	0x3dabf92e	0.08397137
252	0x3c52b4b0	0.012860462
253	0xbbfdffbd	-0.0077514336
254	0xbccb947b	-0.024851074
255	0xbe6d7114	-0.23187667

decoder.net.2.bias f4 [16]
0	0x3c629d7d	0.013831493
1	0xbca3cc53	-0.01999489
2	0xbd02b2bf	-0.031908747
3	0x3cb8bc20	0.022550642
4	0x3dd5e748	0.10444504
5	0x3c2e5d56	0.01064237
6	0x3d95fa2a	0.07323106
7	0x3e0784c5	0.13234241
8	0xbabc1a95	-0.0014351184
9	0x3a906de4	0.0011019078
10	0x3a752f24	0.0009353033
11	0x3dde174e	0.10844289
12	0x3cce7f3e	0.025207158
13	0x3e097ad8	0.13425767
14	0x3db5847d	0.08863161
15	0x3addb66d	0.0016915329

decoder.net.4.weight f4 [16, 16, 3, 3]
0	0xbd9799b5	-0.07402364
1	0x3d05a084	0.032623783
2	0xbb7917f8	-0.0038008671
3	0x3bf72f7b	0.007543502
4	0x3d3d9310	0.046282828
5	0xbb73be2f	-0.0037192216
6	0x3d38879c	0.045051202
7	0x3d693cc8	0.05694273
8	0xbc54b834	-0.012983371
9	0x3d424138	0.04742548
10	0x3d2eae1f	0.042646524
11	0x3c6cc4da	0.01445123
12	0xbd003e03	-0.03130914
13	0xbd14be20	-0.03631413
14	0x3d1cb6be	0.038260214
15	0x3d6d7290	0.057970583
16	0xbd38864a	-0.045049943
17	0xbd84d76a	-0.064863995
18	0xbe25a3fe	-0.1617584
19	0xbdfabf43	-0.122435115
20	0xbe506404	-0.20350653
21	0xbdcf08a4	-0.1010907
22	0xbcb87b28	-0.022519663
23	0xbe1b1c9b	-0.15147631
24	0xbe5a4ea5	-0.21319063
25	0xbdbcff0e	-0.09228335
26	0xbe281cae	-0.1641719
27	0xbd018799	-0.031623457
28	0x3cdec403	0.027193075
29	0xbc881f70	-0.016616553
30	0x3c033a82	0.008009555
31	0x3d9576ad	0.07298026
32	0x3dc29a29	0.0950206
33	0x3db86eb6	0.090054914
34	0x3d70c844	0.05878474
35	0x3ded3636	0.115826055
36	0xba13bb71	-0.0005635536
37	0xbdcab2fe	-0.09897421
38	0xbe6fcc74	-0.23417836
39	0xbd0ac8e3	-0.033882987
40	0xbe0cfc4a	-0.13768116
41	0xbe703b66	-0.23460159
42	0xbcdc6833	-0.026905155
43	0xbd1e1daf	-0.038602527
44	0xbcc38e8d	-0.023871684
45	0xbe68e59e	-0.22743842
46	0xbe4677ad	-0.1938159
47	0xbe4c8a82	-0.19974712
48	0xbd3b4485	-0.045719642
49	0xbdd6e581	-0.10492993
50	0xbe1ce89c	-0.15323108
51	0x3e05f423	0.13081412
52	0xbd92dc38	-0.0717091
53	0xba975543	-0.0011545796
54	0xbd4386c7	-0.047735956
55	0x3e181730	0.14852595
56	0xbdc5c703	-0.09657099
57	0xbe837591	-0.25675634
58	0x3cc4944d	0.023996497
59	0x3d76f551	0.060292546
60	0x3cc35368	0.023843482
61	0x3d223793	0.03960378
62	0x3e368113	0.17822675
63	0x3d139560	0.036031127
64	0x3bfdb0a2	0.0077420035
65	0x3df9e1d4	0.122012764
66	0x3d273f25	0.040831704
67	0x3c6140d6	0.013748368
68	0x3de8b4a4	0.113625795
69	0x3e050d4f	0.12993358
70	0x3d299f32	0.041411586
71	0x3de04780	0.109511375
72	0x3de5b09c	0.11215326
73	0xbd04f9aa	-0.03246466
74	0x3e068a24	0.13138634
75	0x3dbfa08f	0.09356796
76	0x3d2c0990	0.042001307
77	0x3d9f01c2	0.07764007
78	0x3dc69561	0.096964605
79	0x3e041878	0.12899959
80	0x3e05a84b	0.1305248
81	0xbdfcac2f	-0.12337529
82	0xbdc31c68	-0.095269024
83	0xbdc12b3c	-0.094320744
84	0xbdf1a19c	-0.11798403
85	0xbe06d5b6	-0.13167462
86	0xbe0017ab	-0.12509029
87	0xbdbba6e0	-0.09162688
88	0xbd320e47	-0.043470647
89	0xbdcdae90	-0.10043061
90	0x3de26cd6	0.11055915
91	0x3cc7c4aa	0.024385769
92	0xbc37b935	-0.01121359
93	0x3cdcc25a	0.026948143
94	0x3dd0dcae	0.10198341
95	0x3dc4f591	0.096171506
96	0xbcd1fed7	-0.025634212
97	0xbd482d01	-0.048871044
98	0xbd1bec15	-0.038066942
99	0x3d3bcc35	0.045849044
100	0x3d25679f	0.040382024
101	0x3e0616f4	0.13094693
102	0x3e0b56cc	0.13607329
103	0x3dc30720	0.09522843
104	0x3da0d89c	0.07853815
105	0x3dc638c0	0.09678793
106	0x3d15ba92	0.03655488
107	0x3da37392	0.07981028
108	0x3e6cc8a2	0.2312341
109	0x3cdbf985	0.026852379
110	0x3e082fa0	0.13299417
111	0x3df9ac96	0.12191121
112	0x3e26756f	0.16255735
113	0x3e1b5a56	0.15171179
114	0x3d939fe8	0.07208234
115	0x3b7163f0	0.003683325
116	0x3decb6d2	0.11558308
117	0x3d947c0c	0.072502226
118	0xbe5dca97	-0.21659313
119	0xbbd09ea3	-0.006366567
120	0x3e302662	0.17202142
121	0x3e419571	0.18904664
122	0x3d6f1f0b	0.058379214
123	0x3e73bb98	0.2380203
124	0xbe447e58	-0.19188821
125	0xbe1435db	-0.14473669
126	0xbd230de9	-0.039808188
127	0x3d00427e	0.031313412
128	0xbd98ad83	-0.0745497
129	0xbd8ce5a4	-0.06879738
130	0xbd88b610	-0.06675351
131	0xbe23318f	-0.15936874
132	0xbd71f4cf	-0.05907136
133	0xbe823ece	-0.2543854
134	0xbe75e705	-0.24013908
135	0xbd38d82c	-0.045128033
136	0xbdbd6eae	-0.09249626
137	0x3c5b1a13	0.013372916
138	0x3ca061c3	0.019577866
139	0x3d9af393	0.07565989
140	0x3c75cca9	0.015002408
141	0x3dfaf12b	0.122530304
142	0xbc6498cb	-0.013952444
143	0x3dd05feb	0.10174545
144	0xbd8f22b6	-0.069890425
145	0x3c31286b	0.010812859
146	0x3ca10562	0.019655887
147	0xbc3a9370	-0.011387691
148	0xbd1fb035	-0.038986403
149	0xbc92185c	-0.017833881
150	0x3d9cfb09	0.07665069
151	0x3cbece6e	0.023291793
152	0x3d9122ba	0.07086702
153	0x3d2af4cd	0.041737366
154	0xbd14aed6	-0.03629955
155	0x3da2f4b5	0.079568304
156	0xbc3754e2	-0.011189671
157	0xbd763fb0	-0.06011933
158	0xbcea6f33	-0.028617477
159	0xbbb004ca	-0.0053716647
160	0xbd8d6096	-0.06903188
161	0xbc6d778c	-0.014493834
162	0xbd4dd253	-0.05024941
163	0xbd11d4c0	-0.035603285
164	0x3ba9861b	0.0051734573
165	0x3d6c3c12	0.057674475
166	0xbc4df1b4	-0.012569834
167	0x3e5c3230	0.2150352
168	0xbd17faa9	-0.037104283
169	0x3d47135a	0.04860244
170	0x3d05ffd6	0.032714687
171	0x3d300d06	0.04298117
172	0x3cb15fd2	0.021652136
173	0x3c82ff69	0.01599093
174	0xbcaa225f	-0.020768343
175	0x3d368ef3	0.04456992
176	0xbdd29ba7	-0.102835946
177	0x3dccf4c1	0.100076206
178	0x3e1b3606	0.15157327
179	0x3d40ab70	0.047038496
180	0x3b2cd5d2	0.0026372564
181	0xbe2fb730	-0.17159724
182	0xbdd3f25d	-0.103489615
183	0xbe073257	-0.13202797
184	0xbe129cf6	-0.14317688
185	0xbd8a6685	-0.06757835
186	0xbe23a535	-0.1598099
187	0xbe17a2b4	-0.1480816
188	0x3d12b5a6	0.035817765
189	0xbe30a3ee	-0.17250034
190	0xbdd44dd4	-0.10366407
191	0xbd8b74fd	-0.06809423
192	0xbe3abf59	-0.18237056
193	0x3d127bdb	0.03576265
194	0x3deedc7c	0.11663148
195	0xbe0c4a03	-0.13700108
196	0xbd4d9757	-0.050193157
197	0x3dacfd5e	0.084467635
198	0xbb968ca1	-0.004594401
199	0xbd06317d	-0.03276204
200	0xbd11bde9	-0.035581503
201	0x3d984818	0.07435626
202	0xbe8d281d	-0.27569667
203	0x3b801a6d	0.0039094
204	0xbda48ff7	-0.080352716
205	0xbb21a39d	-0.0024664172
206	0xbe08e7dd	-0.13369699
207	0x3e31ed2b	0.17375629
208	0x3d6c3f6c	0.05767767
209	0x3ce10850	0.027469784
210	0x3e5e6643	0.21718697
211	0x3ed0fba9	0.40817
212	0xbc1bd38f	-0.009510889
213	0x3e8ade91	0.2712293
214	0x3e44f887	0.1923543
215	0xbd814466	-0.06311874
216	0x3d9c534f	0.07633077
217	0xbc675e30	-0.014121577
218	0x3cdedbb4	0.027204372
219	0x3db64c2f	0.089012496
220	0x3e674037	0.2258309
221	0x3ed3707c	0.41296756
222	0x3e06e18a	0.13171974
223	0x3e14d3b0	0.14533877
224	0x3df28bc7	0.11843067
225	0xbe08d1f8	-0.13361347
226	0xbdfcf693	-0.12351718
227	0x3d141bb4	0.036159232
228	0xbd81a3b9	-0.06330056
229	0xbbe37b21	-0.0069421683
230	0xbd9b8a1a	-0.075947
231	0xbe017f01	-0.12646104
232	0xbd5b1f8d	-0.053496886
233	0xbd814dd4	-0.06313673
234	0x3dbefa1b	0.093250476
235	0x3ba678ba	0.0050803097
236	0x3d845e6c	0.06463322
237	0x3c77c271	0.015122042
238	0x3ddd4c42	0.10805561
239	0x3cb06894	0.021534242
240	0x3d34c079	0.04412887
241	0x3d7bc116	0.061463438
242	0x3d2b1efc	0.041777596
243	0xbd9a81d7	-0.07544296
244	0x3dd1f087	0.10250955
245	0xbda48c96	-0.08034627
246	0x3d491ebe	0.049101584
247	0x3e99e3f6	0.30056733
248	0x3e100bba	0.14066973
249	0x3d9d393f	0.076769345
250	0x3e9b102c	0.30285776
251	0xbc2a62d6	-0.010399541
252	0xbced95a1	-0.029002013
253	0xbe99bb89	-0.3002589
254	0xbdfa6a20	-0.12227273
255	0x3e2362a5	0.15955599

decoder.net.4.bias f4 [16]
0	0xbdad1f97	-0.08453291
1	0x3c413426	0.011792218
2	0x3c231b2d	0.00995521
3	0x3cb5d06e	0.022194114
4	0x3e0010a2	0.12506345
5	0x3d8ae310	0.0678159
6	0xbdbb0730	-0.0913223
7	0x3cb7cdaa	0.022436935
8	0x3cdc5120	0.026894152
9	0x3dfde67a	0.123974755
10	0xbcc07231	-0.02349195
11	0xbcaefaa3	-0.021359747
12	0xbcf4ed6a	-0.029898364
13	0xbd3bd13c	-0.04585384
14	0xbac5c20f	-0.0015087741
15	0xbbb03967	-0.0053779366
